2026-05-05 22:11:40 [INFO ] === Arquitectura del modelo (torchinfo) ===
2026-05-05 22:11:40 [INFO ] ===============================================================================================
2026-05-05 22:11:40 [INFO ] Layer (type:depth-idx)                        Output Shape              Param #
2026-05-05 22:11:40 [INFO ] ===============================================================================================
2026-05-05 22:11:40 [INFO ] BigEarthViT                                   [1, 19]                   --
2026-05-05 22:11:40 [INFO ] ├─VisionTransformer: 1-1                      [1, 768]                  152,064
2026-05-05 22:11:40 [INFO ] │    └─PatchEmbed: 2-1                        [1, 196, 768]             --
2026-05-05 22:11:40 [INFO ] │    │    └─Conv2d: 3-1                       [1, 768, 14, 14]          590,592
2026-05-05 22:11:40 [INFO ] │    │    └─Identity: 3-2                     [1, 196, 768]             --
2026-05-05 22:11:40 [INFO ] │    └─Dropout: 2-2                           [1, 197, 768]             --
2026-05-05 22:11:40 [INFO ] │    └─Identity: 2-3                          [1, 197, 768]             --
2026-05-05 22:11:40 [INFO ] │    └─Identity: 2-4                          [1, 197, 768]             --
2026-05-05 22:11:40 [INFO ] │    └─Sequential: 2-5                        [1, 197, 768]             --
2026-05-05 22:11:40 [INFO ] │    │    └─Block: 3-3                        [1, 197, 768]             7,087,872
2026-05-05 22:11:40 [INFO ] │    │    └─Block: 3-4                        [1, 197, 768]             7,087,872
2026-05-05 22:11:40 [INFO ] │    │    └─Block: 3-5                        [1, 197, 768]             7,087,872
2026-05-05 22:11:40 [INFO ] │    │    └─Block: 3-6                        [1, 197, 768]             7,087,872
2026-05-05 22:11:40 [INFO ] │    │    └─Block: 3-7                        [1, 197, 768]             7,087,872
2026-05-05 22:11:40 [INFO ] │    │    └─Block: 3-8                        [1, 197, 768]             7,087,872
2026-05-05 22:11:40 [INFO ] │    │    └─Block: 3-9                        [1, 197, 768]             7,087,872
2026-05-05 22:11:40 [INFO ] │    │    └─Block: 3-10                       [1, 197, 768]             7,087,872
2026-05-05 22:11:40 [INFO ] │    │    └─Block: 3-11                       [1, 197, 768]             7,087,872
2026-05-05 22:11:40 [INFO ] │    │    └─Block: 3-12                       [1, 197, 768]             7,087,872
2026-05-05 22:11:40 [INFO ] │    │    └─Block: 3-13                       [1, 197, 768]             7,087,872
2026-05-05 22:11:40 [INFO ] │    │    └─Block: 3-14                       [1, 197, 768]             7,087,872
2026-05-05 22:11:40 [INFO ] │    └─LayerNorm: 2-6                         [1, 197, 768]             1,536
2026-05-05 22:11:40 [INFO ] │    └─Identity: 2-7                          [1, 768]                  --
2026-05-05 22:11:40 [INFO ] │    └─Dropout: 2-8                           [1, 768]                  --
2026-05-05 22:11:40 [INFO ] │    └─Identity: 2-9                          [1, 768]                  --
2026-05-05 22:11:40 [INFO ] ├─Sequential: 1-2                             [1, 19]                   --
2026-05-05 22:11:40 [INFO ] │    └─Dropout: 2-10                          [1, 768]                  --
2026-05-05 22:11:40 [INFO ] │    └─Linear: 2-11                           [1, 19]                   14,611
2026-05-05 22:11:40 [INFO ] ===============================================================================================
2026-05-05 22:11:40 [INFO ] Total params: 85,813,267
2026-05-05 22:11:40 [INFO ] Trainable params: 85,813,267
2026-05-05 22:11:40 [INFO ] Non-trainable params: 0
2026-05-05 22:11:40 [INFO ] Total mult-adds (Units.MEGABYTES): 200.83
2026-05-05 22:11:40 [INFO ] ===============================================================================================
…
