2026-05-26 22:25:20 [INFO ] === Arquitectura del modelo (torchinfo) ===
2026-05-26 22:25:20 [INFO ] ===============================================================================================
2026-05-26 22:25:20 [INFO ] Layer (type:depth-idx)                        Output Shape              Param #
2026-05-26 22:25:20 [INFO ] ===============================================================================================
2026-05-26 22:25:20 [INFO ] BigEarthModel                                 [1, 19]                   --
2026-05-26 22:25:20 [INFO ] ├─VisionTransformer: 1-1                      [1, 192]                  38,016
2026-05-26 22:25:20 [INFO ] │    └─PatchEmbed: 2-1                        [1, 196, 192]             --
2026-05-26 22:25:20 [INFO ] │    │    └─Conv2d: 3-1                       [1, 192, 14, 14]          147,648
2026-05-26 22:25:20 [INFO ] │    │    └─Identity: 3-2                     [1, 196, 192]             --
2026-05-26 22:25:20 [INFO ] │    └─Dropout: 2-2                           [1, 197, 192]             --
2026-05-26 22:25:20 [INFO ] │    └─Identity: 2-3                          [1, 197, 192]             --
2026-05-26 22:25:20 [INFO ] │    └─Identity: 2-4                          [1, 197, 192]             --
2026-05-26 22:25:20 [INFO ] │    └─Sequential: 2-5                        [1, 197, 192]             --
2026-05-26 22:25:20 [INFO ] │    │    └─Block: 3-3                        [1, 197, 192]             444,864
2026-05-26 22:25:20 [INFO ] │    │    └─Block: 3-4                        [1, 197, 192]             444,864
2026-05-26 22:25:20 [INFO ] │    │    └─Block: 3-5                        [1, 197, 192]             444,864
2026-05-26 22:25:20 [INFO ] │    │    └─Block: 3-6                        [1, 197, 192]             444,864
2026-05-26 22:25:20 [INFO ] │    │    └─Block: 3-7                        [1, 197, 192]             444,864
2026-05-26 22:25:20 [INFO ] │    │    └─Block: 3-8                        [1, 197, 192]             444,864
2026-05-26 22:25:20 [INFO ] │    │    └─Block: 3-9                        [1, 197, 192]             444,864
2026-05-26 22:25:20 [INFO ] │    │    └─Block: 3-10                       [1, 197, 192]             444,864
2026-05-26 22:25:20 [INFO ] │    │    └─Block: 3-11                       [1, 197, 192]             444,864
2026-05-26 22:25:20 [INFO ] │    │    └─Block: 3-12                       [1, 197, 192]             444,864
2026-05-26 22:25:20 [INFO ] │    │    └─Block: 3-13                       [1, 197, 192]             444,864
2026-05-26 22:25:20 [INFO ] │    │    └─Block: 3-14                       [1, 197, 192]             444,864
2026-05-26 22:25:20 [INFO ] │    └─LayerNorm: 2-6                         [1, 197, 192]             384
2026-05-26 22:25:20 [INFO ] │    └─Identity: 2-7                          [1, 192]                  --
2026-05-26 22:25:20 [INFO ] │    └─Dropout: 2-8                           [1, 192]                  --
2026-05-26 22:25:20 [INFO ] │    └─Identity: 2-9                          [1, 192]                  --
2026-05-26 22:25:20 [INFO ] ├─Sequential: 1-2                             [1, 19]                   --
2026-05-26 22:25:20 [INFO ] │    └─Dropout: 2-10                          [1, 192]                  --
2026-05-26 22:25:20 [INFO ] │    └─Linear: 2-11                           [1, 19]                   3,667
2026-05-26 22:25:20 [INFO ] ===============================================================================================
2026-05-26 22:25:20 [INFO ] Total params: 5,528,083
2026-05-26 22:25:20 [INFO ] Trainable params: 5,528,083
2026-05-26 22:25:20 [INFO ] Non-trainable params: 0
2026-05-26 22:25:20 [INFO ] Total mult-adds (Units.MEGABYTES): 34.28
2026-05-26 22:25:20 [INFO ] ===============================================================================================
…
